model/best_model_0.005_150.pth (torch, 2616 bytes, 3 tensors)

conv1.bias f4 [16]
0	0xbda45ae1	-0.08025146
1	0x00000000	0.0
2	0x00000000	0.0
3	0xc0a41613	-5.1276946
4	0xbd9dbb44	-0.07701734
5	0xbe33ba5a	-0.17551556
6	0x00000000	0.0
7	0xbd90cf58	-0.07070798
8	0x00000000	0.0
9	0xbf1e863f	-0.61923593
10	0x00000000	0.0
11	0x00000000	0.0
12	0xbeba584e	-0.36395496
13	0xbf8640fa	-1.0488579
14	0xc09e14ec	-4.940054
15	0xbf36b201	-0.7136536

conv1.lin.weight f4 [16, 2]
0	0xbea04715	-0.3130423
1	0x3e9bf9b1	0.30463937
2	0xbec9d81e	-0.39422697
3	0xbe4b99fe	-0.19882962
4	0xbd298b88	-0.041392833
5	0xbecc0eee	-0.3985514
6	0x3faa7098	1.3315611
7	0xc1fb38e5	-31.40278
8	0xbcabdfbd	-0.02098071
9	0xbeab5330	-0.33461905
10	0xbeab2a6f	-0.33430812
11	0x3e74fb4b	0.23923986
12	0xbc4f5995	-0.012655635
13	0xbeb4aa40	-0.3528614
14	0xbea5d8f0	-0.32392073
15	0x3e836db1	0.25669625
16	0xbf03b95d	-0.51454717
17	0x3d67e43c	0.056614146
18	0x3d29d420	0.041462064
19	0xbe8294ef	-0.25504252
20	0xbf09fc35	-0.5390046
21	0x3ec1f874	0.37884867
22	0xbe890311	-0.26760152
23	0xbe38a074	-0.18029958
24	0x3ca5a771	0.020221444
25	0xbc923c19	-0.017850922
26	0x3fac5f00	1.3466492
27	0xc231d958	-44.46225
28	0x3fe2f969	1.7732364
29	0x3e95fc6a	0.2929414
30	0xbe3da013	-0.18518095
31	0x3e2826bc	0.16421026

conv2.lin.weight f4 [1, 16]
0	0xbe8c609c	-0.27417457
1	0xbe8d5b56	-0.27608746
2	0xbe8514d6	-0.2599246
3	0xc19a88c1	-19.316774
4	0xbe054832	-0.13015822
5	0x3dae6327	0.085150056
6	0x3e8d3549	0.27579716
7	0xbed0945d	-0.40738192
8	0x3eb112c4	0.3458463
9	0x3e191ebd	0.14953132
10	0xbdd02813	-0.101638936
11	0xbee8929e	-0.4542436
12	0x3d60aa1e	0.054849736
13	0xbe9db319	-0.30800703
14	0xc087630f	-4.230842
15	0x3d97501c	0.073883265
