model/best_model_0.0001_150.pth (torch, 2624 bytes, 3 tensors)

conv1.bias f4 [16]
000000 84 03 ec bc 42 7e 25 be 00 00 00 00 58 7d 01 be
       -0.02881027 -0.16161445 0.0 -0.12645471
000010 00 00 00 00 93 a2 f8 3c ef 2c ce bb 00 00 00 00
       0.0 0.030350959 -0.0062919776 0.0
000020 00 00 00 00 18 4c eb bc 00 00 00 00 9e 9b 8d 3d
       0.0 -0.028722808 0.0 0.06914447
000030 15 3d 19 3d 4b 08 0f 3d c3 d1 b4 3d 00 00 00 00
       0.037411768 0.03492002 0.088290714 0.0

conv1.lin.weight f4 [16, 2]
000000 ae 94 13 3e d7 b9 21 bd 52 12 50 be ed bb 98 3e
       0.14412186 -0.03948387 -0.20319489 0.29830876
000010 5b 8b 2f be 16 af 85 bd 8f 3c dc be ab 6e e2 3e
       -0.17143004 -0.065275356 -0.43014953 0.44225058
000020 d2 d9 f8 be 91 47 27 3e 87 10 13 3f 35 6f c6 be
       -0.48603684 0.16335894 0.57447094 -0.3875672
000030 ce fb ea b8 07 4a 87 bc 9a a2 9f be 4e af 3a be
       -0.00011204892 -0.016514791 -0.31178743 -0.18230936
000040 0c 35 00 bf 7b ce c3 be aa a8 06 3f 2f 45 a0 3e
       -0.50080943 -0.3824347 0.5260111 0.31302783
000050 bb 38 50 be e1 ed 58 bd e1 a0 cd 3d b0 e6 f4 3c
       -0.20334141 -0.052961234 0.10040451 0.029895157
000060 2e 97 29 3e 6a a0 30 3f ce 29 49 3c bb 9d 8e 3e
       0.16561577 0.6899477 0.012278033 0.27854714
000070 02 78 06 3e 08 b6 38 be 0b 35 15 be cf c9 a0 be
       0.13131717 -0.1803819 -0.14571016 -0.31403968

conv2.lin.weight f4 [1, 16]
000000 57 90 ca be 4d 12 17 be 52 b7 ed 3e a0 ad 8c be
       -0.39563248 -0.14753075 0.46428925 -0.27476215
000010 ad 1d c3 3e 14 73 6b 3e e1 b9 34 be fa 71 ee be
       0.38108578 0.22993118 -0.17649032 -0.46571332
000020 f2 bd ba 3e ef 13 c5 be 8b be e5 be 8c 95 12 3f
       0.36473042 -0.3849177 -0.44871935 0.5725944
000030 55 98 2f 3e 7b fd 88 3e 34 b7 0e bf 77 47 e0 3e
       0.17147954 0.2675589 -0.55748296 0.43804523
