model/best_model_0.0005_150.pth (torch, 2624 bytes, 3 tensors)

conv1.bias f4 [16]
000000 00 00 00 00 fc 7a d1 be eb ef 8c bf d4 69 b9 bf
       0.0 -0.40914142 -1.1010717 -1.4485421
000010 98 a7 47 be 00 00 00 00 ed bf 6f be 00 00 00 00
       -0.19497526 0.0 -0.23413058 0.0
000020 00 00 00 00 c7 1a 52 bd 64 57 1f be 00 00 00 00
       0.0 -0.051295068 -0.1556068 0.0
000030 00 00 00 00 c5 59 60 3e 1e 80 13 3e 30 ad 96 3e
       0.0 0.21909244 0.14404342 0.29429007

conv1.lin.weight f4 [16, 2]
000000 1a 66 99 bd 67 49 b9 be 63 4a ce 3e e2 9e 0b c1
       -0.074901775 -0.36188814 0.40291128 -8.72629
000010 7c 0f c9 3e 4e 34 8a 3d bf 1b 04 3f 8f c5 b9 3d
       0.39269626 0.067482576 0.5160484 0.090708844
000020 07 13 c4 3e 4f c7 95 bf a3 67 1b be 28 fe c7 bd
       0.38295767 -1.1701449 -0.15176253 -0.09765273
000030 2a b9 64 be 4f d3 e2 3e d8 dc e0 be cd 74 76 be
       -0.2233626 0.4430184 -0.4391849 -0.24067993
000040 a3 6a bd bc da 95 a9 bb 4a 8e eb be 3f 8a ee 3e
       -0.023122137 -0.0051753344 -0.46006995 0.46589848
000050 52 ee d7 3e b2 0e 67 3e 3e 29 96 be 88 7f bb bd
       0.4217401 0.225642 -0.2932834 -0.09155184
000060 d7 27 8f be ff 12 08 bf f1 2e bf 3e 1a 23 2a bf
       -0.27960083 -0.53153986 0.373405 -0.6645981
000070 d1 d7 01 3f 0f c8 1b c1 72 0d db be 10 df eb 3e
       0.50719935 -9.736342 -0.42783695 0.4606862

conv2.lin.weight f4 [1, 16]
000000 f4 d8 d8 3e 94 6c c1 bf 45 a4 ab c0 7f ec f5 c0
       0.42353022 -1.511126 -5.3638024 -7.685119
000010 22 af 6c 3f b8 98 e5 3e 33 e6 43 3f a2 29 dd be
       0.9245473 0.44843078 0.7652313 -0.43195826
000020 7d 78 d2 be 6c c5 fb ba b8 97 91 be 86 d8 7e 3e
       -0.4110755 -0.0019208617 -0.28436065 0.24887285
000030 e6 b5 fb be d8 b7 e4 3e ca 66 5d bf f9 df fe 3d
       -0.49162215 0.44671512 -0.8648497 0.12445063
