model/best_model_0.001.pth (torch, 2584 bytes, 3 tensors)

conv1.bias f4 [16]
00000000: 0000 0000 d422 0ebf 6591 14c0 0000 0000
00000010: 214b 15bf eedc edbe 63ba aec0 8c95 1abf
00000020: 6814 09bc 7968 49c0 88bd 3b3d 0000 0000
00000030: 0000 0000 0000 0000 56e7 7abe 0000 0000
0.0 -0.55521894 -2.3213742 0.0 -0.5831776 -0.46457618 -5.4602523 -0.6038444
-0.008366682 -3.1470015 0.045835048 0.0 0.0 0.0 -0.2450231 0.0

conv1.lin.weight f4 [16, 2]
00000000: eabf 11bf daf8 913d 0515 0a3f 94d5 40c1
00000010: c883 423f 10a6 5f3e eb6b 6cbe be63 e93d
00000020: 54c4 093f 0a1e 07bf c79c 883e 17a3 603e
00000030: 8cdf c1bd 0f06 0340 fb69 133f a5bd 4ec1
00000040: 20e7 80be 0c4a 733e 3dc6 5a3f 5ea5 0dc1
00000050: 9b81 8f3e 9f83 18c1 c4dd 59bc ebda 9bbe
00000060: ffe9 6cbd e25e fdbd 3dc5 e6be 1be6 b63e
00000070: 00ac d4be 606e 303f 807c 12bf 009e f8be
-0.5693346 0.07127543 0.53938323 -12.052143 0.7598233 0.21840692 -0.23088042 0.113959774
0.538152 -0.5278021 0.26682112 0.21937214 -0.09466466 2.0472448 0.5758359 -12.9213
-0.25176334 0.23758715 0.8545874 -8.852873 0.2802857 -9.532134 -0.013297502 -0.3044046
-0.057840344 -0.12371613 -0.45072356 0.35722432 -0.41537476 0.6891842 -0.5722122 -0.48558044

conv2.lin.weight f4 [1, 16]
00000000: a410 ee3e c524 8ebf 9e5f 4dc1 83dc cabe
00000010: dff0 b43f 8ba2 0dbe f9ae 7041 36a5 b9bf
00000020: feae 18be fab6 30c1 5e59 64be 6c2b e83e
00000030: 66c0 dbbd 17e5 c93e d70c a93e 9bb2 89be
0.4649707 -1.1104971 -12.835844 -0.39621362 1.4136008 -0.13831536 15.042718 -1.4503543
-0.14910504 -11.044672 -0.22299716 0.45345628 -0.107300565 0.39432594 0.3301761 -0.26894078
