model/model_task1_0.0005_200_1.pt (torch, 2712 bytes, 3 tensors)

conv1.bias f4 [16]
00000000: b07c c1bd b3bb 55be 258c 01be 0000 0000
00000010: a6cb 22be 0000 0000 0000 0000 7fe1 adbe
00000020: 2b28 72be 02d8 0fbe 0000 0000 c0b8 5abc
00000030: 1816 15bd 0000 0000 63e0 ca3e 0000 0000
-0.094476104 -0.20872383 -0.12651117 0.0 -0.15897998 0.0 0.0 -0.33961102
-0.23648135 -0.14047244 0.0 -0.013349712 -0.036398023 0.0 0.39624318 0.0

conv1.lin.weight f4 [16, 2]
00000000: 8108 d63c 81d2 6fbe 4417 bdbe 7ed2 203f
00000010: e0ba a43e 830d 12bf 06d2 cfbe f8cf c33d
00000020: 35ad 293f 28a6 2bc1 6ee5 bbbd cf6e 29be
00000030: 5067 85bd 19a8 fbbe 17ad b7be 220c 343f
00000040: 02be 203f 824a 7c3e f687 843d 5696 973e
00000050: bef5 cabe a589 bfbe 1664 efbe e9f9 ec3e
00000060: 3521 fbbe 2456 fd3e 0c0e 80be 56c7 d0be
00000070: 8f13 a83e 72ee 40bf 733e f9be 0666 f83e
0.026127102 -0.23420145 -0.36931813 0.62821186 0.32173824 -0.5705187 -0.40589923 0.09561151
0.6627992 -10.7280655 -0.091746196 -0.16546176 -0.06513846 -0.49151686 -0.35874245 0.70331013
0.6278993 0.24637797 0.06471245 0.29606885 -0.3964061 -0.37409702 -0.46756047 0.46284416
-0.49048772 0.49479783 -0.25010717 -0.4077708 0.32827422 -0.7536384 -0.48680457 0.48515338

conv2.lin.weight f4 [1, 16]
00000000: 9161 e4bc 15f9 453f 6e3c 023f 3373 133f
00000010: 84b0 8cbf ce8d 833d 9eec 90be 1f72 ec3e
00000020: 15c7 d7be ba77 ce3d 4a9f a1be 3214 c03e
00000030: 1b8f b23d f594 843e 74d6 583e 82bb f53e
-0.027878555 0.77333194 0.5087346 0.57597655 -1.0991368 0.064235315 -0.28305525 0.46180817
-0.42144075 0.1008143 -0.3156684 0.37515408 0.087187015 0.25894895 0.21175557 0.4799462
