model/model_task2_0.0005_200_1.pt (torch, 2712 bytes, 3 tensors)

conv1.bias f4 [16]
0	0x00000000	0.0
1	0xbd37474c	-0.04474573
2	0xbda76b70	-0.08174789
3	0x00000000	0.0
4	0x00000000	0.0
5	0xbefb2982	-0.49055105
6	0xbf379713	-0.71714896
7	0x00000000	0.0
8	0x00000000	0.0
9	0x00000000	0.0
10	0x00000000	0.0
11	0x00000000	0.0
12	0xbe8317f4	-0.25604212
13	0xbdda4468	-0.10657579
14	0x00000000	0.0
15	0xbeda20db	-0.42603192

conv1.lin.weight f4 [16, 2]
0	0xbf0093f8	-0.5022578
1	0x3eb9bd88	0.36277413
2	0xbea5f6b1	-0.32414773
3	0x3ea80e73	0.32823524
4	0x3d9bed13	0.07613578
5	0x3ea05cd9	0.31320837
6	0xbec4d97a	-0.3844717
7	0xbe9a984c	-0.30194318
8	0xbedc5a1e	-0.43037504
9	0xbf080a12	-0.53140366
10	0xbccfaac7	-0.025349988
11	0x3eb8337f	0.35976788
12	0x3ebfb4f1	0.37442735
13	0xbe95a588	-0.29227853
14	0xbec8e977	-0.3924062
15	0x3e13cbbf	0.14433192
16	0xbedd1362	-0.4317885
17	0x3ec7c3b4	0.39016497
18	0xbdaca9b8	-0.08430809
19	0x3cdbdf9c	0.026840024
20	0xbcd8a083	-0.026443725
21	0x3cacacae	0.021078434
22	0xbed27756	-0.4110667
23	0xbe221985	-0.15830047
24	0x3ed63947	0.41840574
25	0xbf547310	-0.8298807
26	0xbe44a177	-0.19202219
27	0x3e4c5b1e	0.19956633
28	0xbea6ad78	-0.3255422
29	0xbe30482b	-0.1721503
30	0x3e6b21eb	0.22962157
31	0xbebb1226	-0.36537284

conv2.lin.weight f4 [1, 16]
0	0x3e94faaf	0.29097506
1	0xbe618787	-0.22024356
2	0x3e60a45b	0.21937697
3	0xbef1309b	-0.47107396
4	0x3c9566ae	0.018237438
5	0x3f5640ca	0.8369261
6	0xc0811f00	-4.035034
7	0x3dd61ece	0.10455094
8	0xbd948d6e	-0.07253538
9	0xbeef57a8	-0.46746564
10	0x3d98e69a	0.07465859
11	0x3e1131ac	0.14179105
12	0x3f33ab96	0.70183694
13	0xbec709f6	-0.38874787
14	0x3f07d634	0.53061223
15	0xbf7edcc0	-0.9955559
