model/model_task1_0.0005_200_16.pt (torch, 2720 bytes, 3 tensors)

conv1.bias f4 [16]
-0.17202775 -0.2508978 -0.050464366 0.0 -0.007470294 -0.014740071 -0.01401339 0.0
0.0 -0.14068301 -0.040200636 -0.007846095 -0.212748 -0.011685655 -0.0664363 -0.03267821
00000000: 0b28 30be ad75 80be b9b3 4ebd 0000 0000
00000010: 5ec9 f4bb 5780 71bc 6b98 65bc 0000 0000
00000020: 0000 0000 350f 10be 6ca9 24bd e88c 00bc
00000030: 9dda 59be 3175 3fbc c10f 88bd 96d9 05bd

conv1.lin.weight f4 [16, 2]
-0.18408701 0.24356595 0.262763 -0.23955524 0.045893207 -0.16659166 -0.08864492 -0.14097689
0.09744702 0.113406755 0.4838341 -0.2859607 0.48059997 -0.10628021 -0.30520737 0.15784705
-0.076318964 -0.3743949 0.13823391 -0.55824757 0.30130982 0.40743193 0.34950447 -0.19251023
0.028949093 0.020435775 -0.14333494 0.4255836 -0.49761105 0.50024134 0.14930181 0.38048655
00000000: 4e81 3cbe 5a69 793e df88 863e f84d 75be
00000010: 84fa 3b3d 0197 2abe 788b b5bd 3f5c 10be
00000020: 4e92 c73d cd41 e83d 1ab9 f73e 7169 92be
00000030: 3311 f63e 70a9 d9bd 2444 9cbe a8a2 213e
00000040: 1e4d 9cbd b0b0 bfbe 318d 0d3e 50e9 0ebf
00000050: 4845 9a3e eb9a d03e 40f2 b23e 6721 45be
00000060: a626 ed3c ed68 a73c 65c6 12be 18e6 d93e
00000070: e0c6 febe d10f 003f 93e2 183e 22cf c23e

conv2.lin.weight f4 [1, 16]
0.0022276507 -0.00023933333 -0.02525014 0.42197302 0.23238575 0.14451134 -0.33911148 0.16344686
-0.49321428 -0.26764247 0.064293995 0.22684897 0.021978296 0.097409435 -0.40672377 -0.09928978
00000000: c7fd 113b 8df5 7ab9 62d9 cebc d90c d83e
00000010: 88f6 6d3e c8fa 133e 05a0 adbe 9d5e 273e
00000020: 9586 fcbe 6f08 89be 92ac 833d 194b 683e
00000030: d40b b43c 997e c73d 193e d0be 7158 cbbd
