model/model_task1_0.005_200_16.pt (torch, 2712 bytes, 3 tensors)

conv1.bias f4 [16]
000000 d2 6c 87 be 13 cb d1 bd a4 90 90 bb 69 fb 01 be
       -0.2645021 -0.102438115 -0.0044117738 -0.12693562
000010 91 0f b8 be 00 00 00 00 00 00 00 00 00 00 00 00
       -0.35949376 0.0 0.0 0.0
000020 2e ac 8c be 00 00 00 00 00 00 00 00 b9 d9 18 be
       -0.27475113 0.0 0.0 -0.14926805
000030 ca 39 83 be 00 00 00 00 f1 ce b7 bd 9c ff 8b be
       -0.25630027 0.0 -0.08975018 -0.27343452

conv1.lin.weight f4 [16, 2]
000000 f7 2d b9 3c bd 03 7a bd f9 58 f8 bd 97 d9 09 3e
       0.022604926 -0.06103872 -0.12126345 0.1346191
000010 98 a3 82 bb 36 f5 01 bf 47 21 b0 be 1f 2f 81 3e
       -0.003986787 -0.5076479 -0.3440039 0.25231263
000020 d3 02 a1 3d 53 11 a8 3c f4 36 c5 be b8 cb b5 be
       0.07861867 0.020516073 -0.38518488 -0.35506988
000030 44 ed 71 be 1c 06 41 3d c5 66 ce bd ff 3b de be
       -0.23625666 0.047124967 -0.100781955 -0.43405148
000040 64 7b 10 3d 2f 9b 7b be 84 5f fc be fb e1 cc 3e
       0.035273924 -0.24570917 -0.49291623 0.4001616
000050 3c 52 89 be 91 74 aa bc f4 7a a1 bd 7d 2a fd 3d
       -0.26820552 -0.020807536 -0.078847796 0.123616196
000060 34 be ab 3d 25 ce ca be b7 43 bf be 16 84 0b bf
       0.08385888 -0.396104 -0.3735635 -0.5449842
000070 b8 ef 32 be 39 27 3f 3e ed d4 da bd 81 e4 5c 3e
       -0.17474258 0.18667306 -0.106851436 0.21571542

conv2.lin.weight f4 [1, 16]
000000 97 e9 06 bc 18 3a c0 bc 1c cc 2e 3e f6 eb e1 3d
       -0.008234403 -0.023465201 0.17070049 0.11031334
000010 3c e7 e3 bc f1 8d c8 3e 90 a4 c3 be a5 3c 3b be
       -0.027820222 0.39170793 -0.3821149 -0.18284853
000020 bd 81 38 bc 61 ed 83 be 54 aa 86 be d1 f1 c7 3b
       -0.011261401 -0.25767043 -0.26301825 0.006101825
000030 65 2a e9 bc d8 2b cd be 89 8a 9e be ea 6f 59 3b
       -0.028462598 -0.40072513 -0.3096507 0.0033178278
