model/model_task1_0.001_200_16.pt (torch, 2712 bytes, 3 tensors)

conv1.bias f4 [16]
0	0xbd4b9ea4	-0.04971184
1	0x00000000	0.0
2	0xbd1af398	-0.037829965
3	0xbca108ef	-0.01965758
4	0xbcc50d19	-0.024054097
5	0x00000000	0.0
6	0x00000000	0.0
7	0x00000000	0.0
8	0x00000000	0.0
9	0x00000000	0.0
10	0xbde038fa	-0.109483674
11	0xbd82b1ca	-0.06381567
12	0x00000000	0.0
13	0xbcb3d773	-0.02195332
14	0xbe5f3fa7	-0.21801625
15	0x00000000	0.0

conv1.lin.weight f4 [16, 2]
0	0x3e889709	0.2667773
1	0xbeab9584	-0.3351251
2	0xbef44a1a	-0.47712785
3	0xbf1388f3	-0.5763084
4	0x3ef707fe	0.48248285
5	0x3e964bb2	0.29354626
6	0x3e7c1293	0.2461646
7	0xbd43f8fc	-0.047844872
8	0x3e9d6154	0.30738318
9	0x3cc7b1f3	0.024376845
10	0xbea15976	-0.31513566
11	0xbe9e2a60	-0.30891705
12	0xbe606ea2	-0.21917203
13	0xbe911043	-0.2833272
14	0xbe967a6f	-0.29390284
15	0xbd526aa3	-0.051371228
16	0xbeba2cd0	-0.36362314
17	0xbf0c45dc	-0.54794097
18	0xbd188dc7	-0.037244584
19	0xbed32a7a	-0.41243345
20	0xbc0ffa38	-0.008787684
21	0x3eb980c6	0.3623106
22	0x3d44dfea	0.048065104
23	0x3ee0b162	0.43885332
24	0xbe90ba41	-0.282671
25	0x3e810792	0.25201088
26	0xbe82e9cc	-0.25568998
27	0x3e842c47	0.2581503
28	0x3e42c872	0.19021776
29	0x3eab47c3	0.33453187
30	0xbedf7abb	-0.43648323
31	0xbe92d08c	-0.28674734

conv2.lin.weight f4 [1, 16]
0	0xbe75d3e7	-0.24006616
1	0x3ef01599	0.46891478
2	0x3e62eac6	0.22159871
3	0x3eca5d06	0.39524096
4	0xbef87cd4	-0.48532736
5	0x3e28fb8b	0.16502206
6	0xbe9aaaa1	-0.30208305
7	0xbe9c3986	-0.30512637
8	0x3e9d0595	0.3066832
9	0x3e973cb9	0.29538515
10	0xbd1fc390	-0.039004862
11	0xbe0c8fef	-0.13726781
12	0xbeb4cbdc	-0.35311782
13	0xbda73910	-0.08165181
14	0xbd03b3ef	-0.03215402
15	0x3d9ab8c6	0.07554774
