model/model_task1_0.005_200_1.pt (torch, 2704 bytes, 3 tensors)

conv1.bias f4 [16]
0.0 -8.556554 0.0 -1.7669436 0.0 -0.1790057 -0.40833023 -0.36955568
0.0 -0.19987042 -0.6094895 0.0 0.0 -8.427638 -8.523872 -0.051256284
00000000: 0000 0000 a5e7 08c1 0000 0000 352b e2bf
00000010: 0000 0000 454d 37be a910 d1be 6736 bdbe
00000020: 0000 0000 d5aa 4cbe 8107 1cbf 0000 0000
00000030: 0000 0000 9bd7 06c1 c861 08c1 1cf2 51bd

conv1.lin.weight f4 [16, 2]
-0.3337404 -0.3959556 1.2118591 -57.48124 -0.30073452 -0.53433317 1.5405436 -126.75608
-0.5771932 0.032917935 -0.25626835 0.2641714 0.008477193 -0.04361018 -0.13291256 0.060766216
-0.44179606 -0.32594237 -0.38988087 0.4071109 0.0007206552 -0.17803779 -0.13828236 -0.26806587
-0.36580637 0.307343 1.1932415 -57.763054 1.2096394 -57.31638 -0.021931373 -0.24416523
00000000: 06e0 aabe b1ba cabe 331e 9b3f caec 65c2
00000010: e0f9 99be 0fca 08bf 8830 c53f 1d83 fdc2
00000020: efc2 13bf f5d4 063d 9b35 83be 7941 873e
00000030: ede3 0a3c 97a0 32bd 3b1a 08be ffe5 783d
00000040: 1833 e2be ebe1 a6be 779e c7be d770 d03e
00000050: 5aea 3c3a 8a4f 36be e499 0dbe ee3f 89be
00000060: f94a bbbe 105c 9d3e 23bc 983f 5e0d 67c2
00000070: 77d5 9a3f f943 65c2 6ca9 b3bc 7306 7abe

conv2.lin.weight f4 [1, 16]
9.065072e-06 -27.517265 0.53767425 -0.48648125 -0.15921205 -0.11471928 0.017513078 0.05652596
-0.0051780683 0.21770595 0.11526111 -0.4186137 -0.3675542 -26.081907 -26.565008 -0.2105459
00000000: 3016 1837 5c23 dcc1 05a5 093f 1214 f9be
00000010: 7c08 23be f1f1 eabd 9677 8f3c c487 673d
00000020: c9ac a9bb 4fee 5e3e 040e ec3d 8954 d6be
00000030: 1030 bcbe bfa7 d0c1 2385 d4c1 5899 57be
