model/model_task1_0.01_200_16.pt (torch, 2704 bytes, 3 tensors)

conv1.bias f4 [16]
-0.1114502 -0.2647328 -0.102058165 -0.33131188 0.0 0.0 -0.059640456 -0.13134134
0.0 -0.17867732 0.0 -0.14425792 -0.1745014 -0.0920085 -0.15891746 0.0
00000000: 0140 e4bd 0f8b 87be df03 d1bd b6a1 a9be
00000010: 0000 0000 0000 0000 8d49 74bd 587e 06be
00000020: 0000 0000 30f7 36be 0000 0000 59b8 13be
00000030: 7fb0 32be f46e bcbd 42bb 22be 0000 0000

conv1.lin.weight f4 [16, 2]
0.10688587 0.10901994 0.2602903 -0.24187528 0.05020032 -0.6269919 0.1698899 -0.042911362
-0.17717457 -0.11538659 -0.22614785 -0.23505235 0.029535547 -0.21723484 0.10269223 -0.6699953
-0.24890548 -0.2517788 0.095593154 -0.09433571 -0.3476871 -0.18482487 0.13947316 -0.6748642
0.20618044 0.03861622 0.084184356 -0.14237873 0.22321223 -0.57580817 -0.044833973 -0.314609
00000000: fbe6 da3d d945 df3d c544 853e 27ae 77be
00000010: da9e 4d3d 8b82 20bf 9ef7 2d3e d3c3 2fbd
00000020: 406d 35be ce4f ecbd 4d93 67be 90b1 70be
00000030: 88f4 f13c cf72 5ebe 4e50 d23d d084 2bbf
00000040: 14e1 7ebe 27e9 80be 58c6 c33d 1533 c1bd
00000050: 0b04 b2be bb42 3dbe 0dd2 0e3e e6c3 2cbf
00000060: f720 533e 0b2c 1e3d d968 ac3d bbcb 11be
00000070: bf91 643e 2a68 13bf d4a3 37bd 6e14 a1be

conv2.lin.weight f4 [1, 16]
0.10133954 0.004762941 0.0014722827 0.0005083189 0.5480503 -0.5541471 0.009754417 -0.032751318
-0.41740364 0.0009920612 0.2979338 0.24131677 -0.095474444 0.0028552166 -0.13141541 0.2116222
00000000: 1b8b cf3d 7212 9c3b 9cf9 c03a b440 053a
00000010: 064d 0c3f 96dc 0dbf fed0 1f3c 3f26 06bd
00000020: eeb5 d5be 0d08 823a c78a 983e be1b 773e
00000030: 1b88 c3bd 961e 3b3b c391 06be 7db3 583e
