model/model_task2_0.01_200_1.pt (torch, 2696 bytes, 3 tensors)

conv1.bias f4 [16]
000000 00 00 00 00 00 00 00 00 b9 3f 10 bf 99 6b 89 be
       0.0 0.0 -0.56347233 -0.26839903
000010 f2 64 34 bf 09 de 9d bd fc af ca c0 55 af 9d be
       -0.7046653 -0.077083655 -6.3339825 -0.3079783
000020 9f 92 2f c1 05 25 70 be 00 00 00 00 00 00 00 00
       -10.973296 -0.23451622 0.0 0.0
000030 00 00 00 00 00 00 00 00 d8 3a 92 be be ee 4f c1
       0.0 0.0 -0.2856052 -12.995787

conv1.lin.weight f4 [16, 2]
000000 c9 31 86 be d8 9e 06 bf b7 5c c4 be e8 3d f4 be
       -0.26209858 -0.52586126 -0.38351986 -0.4770348
000010 be 25 d9 3c fd 07 1b bf af 8e 79 3b d7 42 39 be
       0.026507255 -0.60559064 0.003807943 -0.18091904
000020 a2 11 09 3d fa 6c 4e bf f6 90 e2 be 59 39 cb 3e
       0.03346408 -0.80635035 -0.4425122 0.3969219
000030 c8 b0 a3 3e 76 c7 34 bf d2 a3 08 3c d4 00 bb bd
       0.3197081 -0.70616853 0.008339839 -0.09131017
000040 73 a1 ee 3f 45 e3 ce 3f e4 08 aa bd 39 5a 6b 3d
       1.864302 1.6163107 -0.08302477 0.05745909
000050 6c 50 01 bf f9 bd a1 bc 11 15 ff be b0 94 7d bc
       -0.5051334 -0.019743906 -0.4982076 -0.015477344
000060 12 7b eb be ab b0 4b 3e 0f 22 06 bf 36 1a ba 3e
       -0.45992333 0.19891612 -0.5239572 0.36348122
000070 1d da aa bd ca ea c2 be 11 45 0b 40 08 c1 2e c0
       -0.08342383 -0.38069755 2.1760905 -2.7305317

conv2.lin.weight f4 [1, 16]
000000 29 c8 6a 3e b3 cc f2 be 98 e5 6d 3c cc 56 7f bc
       0.22927918 -0.47421798 0.014520071 -0.015584659
000010 7b 94 07 3e 71 bf ac 3e e1 c9 8f bf 12 b8 f5 bd
       0.13240235 0.33739808 -1.1233484 -0.11997999
000020 88 6a 8b bf 79 21 a5 3a cb 1c 0e 3b 8f e5 e8 be
       -1.0891886 0.0012598477 0.0021684642 -0.4548764
000030 48 e1 16 3e 81 89 30 bd 98 56 25 3e 10 98 1c c1
       0.14734375 -0.043099884 0.16146314 -9.787125
