model/model_task1_0.001_200_1.pt (torch, 2704 bytes, 3 tensors)

conv1.bias f4 [16]
000000 00 00 00 00 00 00 00 00 d0 82 b5 bd 10 d1 94 bf
       0.0 0.0 -0.08862841 -1.1626301
000010 2b a1 47 c0 00 00 00 00 48 c0 5d bf 0c 9c 6c bd
       -3.119212 0.0 -0.8662152 -0.057766005
000020 d5 7e 0a be 00 00 00 00 ff e2 98 bf 5e f3 94 bf
       -0.13524945 0.0 -1.1944274 -1.163677
000030 dd f6 ab bd 75 2d 95 bb b0 1c ff c0 f4 35 96 bf
       -0.08396695 -0.004552538 -7.972252 -1.1735215

conv1.lin.weight f4 [16, 2]
000000 b9 e4 99 be b8 e3 d7 bc 0d 9f 06 bf 83 13 ee bd
       -0.30057314 -0.026353702 -0.5258644 -0.11624815
000010 cf f1 68 be dd be 71 3e 0e de 93 3f 48 f3 c8 c1
       -0.22748493 0.23607965 1.1552141 -25.11879
000020 a2 96 6b 3f 17 0e b7 3e 12 1c e1 be 83 97 dd 3d
       0.9202672 0.35752937 -0.43966728 0.10819914
000030 09 6c 2d 3f 70 17 7c bf c9 ef 8b bd 5a b6 f6 3c
       0.67742974 -0.9847326 -0.06832845 0.030116249
000040 29 1f f6 bd 49 2a 00 3e 6b 68 ec bd f5 8a df b9
       -0.12017662 0.1251613 -0.11543354 -0.00042637406
000050 db a2 6d 3f ee d0 a9 bf be c0 66 3f 2b 73 a4 bf
       0.9282662 -1.3266885 0.9013785 -1.2847646
000060 c4 c4 c3 bd d7 66 ae 3d 7b 07 4c bd 79 f8 a2 be
       -0.095590144 0.08515709 -0.04981182 -0.31830195
000070 1e 96 16 be 81 aa 3a 40 50 9a 94 3f 8c d0 c9 c1
       -0.14705703 2.9166567 1.1609592 -25.22683

conv2.lin.weight f4 [1, 16]
000000 d4 d9 c2 3d 44 70 ad be 57 dc f1 bc e7 5b 5c c0
       0.09514204 -0.33874714 -0.029524012 -3.4431093
000010 61 87 87 c1 4b f3 9a 3c ad b1 0e 40 78 6d 90 3e
       -16.941103 0.01891484 2.2295945 0.28208518
000020 ec 86 1b 3c 90 07 31 be bb f6 8c 40 aa 4b 7d 40
       0.009492617 -0.17288041 4.4051185 3.9577432
000030 2f 79 30 3d 8c 29 1f 3e 51 1f a9 41 3b 06 6e c0
       0.04308432 0.15543193 21.140291 -3.7191303
