model/model_task2_0.001_200_16.pt (torch, 2712 bytes, 3 tensors)

conv1.bias f4 [16]
0.0044554756 0.0 0.0 0.0 0.12806824 -0.080125995 -0.157356 -0.06636745
-0.07631387 -0.0010042503 0.0 -0.03263493 0.0 0.0 -0.17967486 -0.05862198
00000000: 3dff 913b 0000 0000 0000 0000 0000 0000
00000010: 5224 033e 1919 a4bd ee21 21be a8eb 87bd
00000020: 724a 9cbd 0ca1 83ba 0000 0000 34ac 05bd
00000030: 0000 0000 0000 0000 b0fc 37be 9a1d 70bd

conv1.lin.weight f4 [16, 2]
0.14354698 0.37774935 -0.16095336 -0.31041974 -0.32356477 -0.12585206 -0.31612054 -0.46417
-0.006366349 -0.9728272 0.42749095 0.45551732 -0.02794661 0.27084476 0.23964548 0.25872415
0.08820216 0.41285193 0.24232402 0.300314 -0.33376122 0.2884913 0.0017060869 -0.2829745
-0.4842773 0.122994564 -0.3763993 -0.053553063 0.13716084 -0.36971653 0.5263662 0.16073935
00000000: fbfd 123e 5d68 c13e f5d0 24be 56ef 9ebe
00000010: 48aa a5be 5ddf 00be 8dda a1be b1a7 edbe
00000020: ce9c d0bb 340b 79bf 18e0 da3e 9139 e93e
00000030: 4af0 e4bc 2aac 8a3e a065 753e 7e77 843e
00000040: 56a3 b43d 5461 d33e ca23 783e c2c2 993e
00000050: c0e2 aabe 22b5 933e c79e df3a 09e2 90be
00000060: 32f3 f7be 93e4 fb3d 69b7 c0be 755a 5bbd
00000070: e473 0c3e 7c4b bdbe efbf 063f db98 243e

conv2.lin.weight f4 [1, 16]
-0.22816356 -0.18378492 -0.040658407 0.37642208 0.33562773 0.21204704 0.036198802 0.32471663
-0.052776605 -0.20297842 0.46712175 0.020003872 -0.33357885 -0.17344294 -0.16993403 -0.08614703
00000000: b5a3 69be 1d32 3cbe 6e89 26bd 65ba c03e
00000010: 66d7 ab3e dc22 593e 3245 143d 4241 a63e
00000020: 482c 58bd 93d9 4fbe 952a ef3e 29df a33c
00000030: d9ca aabe 079b 31be 3003 2ebe db6d b0bd
