model/model_task2_0.0005_200_16.pt (torch, 2720 bytes, 3 tensors)

conv1.bias f4 [16]
000000 00 00 00 00 46 64 9f be 00 00 00 00 84 d3 36 bd
       0.0 -0.3113119 0.0 -0.04463531
000010 0e 53 28 be d3 91 b2 bd 07 18 47 3c 00 00 00 00
       -0.16437933 -0.0871922 0.012151725 0.0
000020 00 00 00 00 c7 72 f6 bc 35 5f 0d bd 53 f6 c8 bc
       0.0 -0.030084027 -0.034514625 -0.024531519
000030 00 00 00 00 26 03 81 bb a6 ca 7a 3c a1 f4 86 bd
       0.0 -0.003937143 0.015307104 -0.06589628

conv1.lin.weight f4 [16, 2]
000000 55 f4 9c be 7b 1a eb be 7e 2c 06 3e 79 02 43 bf
       -0.3065516 -0.4591864 0.1310291 -0.7617565
000010 04 c2 0c bf 5f 58 4c 3e 54 83 4c be 29 9c cf 3e
       -0.54983544 0.19955586 -0.19971973 0.40548828
000020 82 11 9d 3e 50 2c 47 bf d0 71 e0 3e e1 70 d6 be
       0.3067742 -0.7780199 0.43836832 -0.41882995
000030 6a f1 97 3e 8d a8 13 3f f0 d4 02 bf 2e 27 0c 3e
       0.29676372 0.57679063 -0.51106167 0.13686821
000040 90 ff f7 be e7 9e e8 3d fe 91 ad 3e 49 06 43 be
       -0.48437166 0.11358433 0.33900446 -0.19045366
000050 8f 3e c0 3d 46 69 a3 bd 82 e2 af 3e aa 34 de 3e
       0.09386932 -0.07979064 0.343525 0.43399554
000060 94 f7 90 be e6 4e 32 be 41 84 21 3e 57 67 84 be
       -0.28313887 -0.1741291 0.15773107 -0.25860092
000070 73 ba 1a be c4 60 a4 3e 7b 34 cb bc 12 a5 8f 3e
       -0.15110187 0.32105076 -0.024805298 0.28055626

conv2.lin.weight f4 [1, 16]
000000 84 91 07 bf f2 ba 78 ba 88 0f a3 be 00 46 6a be
       -0.52956414 -0.0009488306 -0.31847787 -0.22878265
000010 1c 94 bc bb 2c 91 e0 3c 14 05 13 3f 8e 27 df bd
       -0.0057549607 0.027412973 0.57429624 -0.10896216
000020 c3 dd b8 3d 5b 00 82 be 91 34 d4 3c ce 74 00 bf
       0.09026673 -0.25390896 0.025903972 -0.5017823
000030 1d 29 26 bd db fb e1 3e 11 4f 07 3e ff f1 68 be
       -0.040566552 0.44137463 0.13213755 -0.22748564
