model/model_task2_0.005_200_1.pt (torch, 2704 bytes, 3 tensors)

conv1.bias f4 [16]
000000 ba 27 f6 c0 00 00 00 00 b6 60 3c be b0 c3 50 c0
       -7.6923494 0.0 -0.18396267 -3.2619438
000010 00 00 00 00 c9 c6 df bc 00 00 00 00 a8 f6 bf c0
       0.0 -0.027316468 0.0 -5.9988594
000020 d9 20 04 c0 dc e1 bd c0 e7 96 be bc 00 00 00 00
       -2.0645049 -5.9338207 -0.023265315 0.0
000030 52 fa b2 c0 00 00 00 00 9d 9d 93 c0 c3 91 11 be
       -5.5930567 0.0 -4.61299 -0.1421576

conv1.lin.weight f4 [16, 2]
000000 47 19 98 3f 03 53 ab 3f a6 22 56 be c5 82 9a 3d
       1.1882714 1.3384708 -0.20911655 0.075444736
000010 19 df 17 3c 62 89 bf be c9 b3 0c 40 59 c7 31 c2
       0.009269499 -0.37409502 2.1984732 -44.444675
000020 a8 58 96 be 90 d0 84 be e9 3f ef bc f3 e1 dc 3c
       -0.29364514 -0.2594037 -0.02920528 0.02696321
000030 0e 3f eb be 9d b6 cb 3e f7 a6 eb 3f 42 ca a0 c0
       -0.45946544 0.3978776 1.8410329 -5.0246897
000040 af 48 8b 3d 76 ac 74 3a 7b 80 e5 3f d0 65 a0 c0
       0.06800973 0.000933356 1.7929834 -5.0124283
000050 7a 22 6a be ab bc 3d 3e 07 53 e1 be ae ae f8 bd
       -0.22864714 0.18529002 -0.44008657 -0.121426925
000060 69 4c 0a 40 04 be e6 c1 55 4d 1d be 78 e0 03 bf
       2.1609137 -28.842781 -0.15361531 -0.5151439
000070 02 0c 0e 40 0d d7 47 c1 bd cc a9 be d9 4d b0 3e
       2.219483 -12.490003 -0.33164015 0.34434393

conv2.lin.weight f4 [1, 16]
000000 58 ae ab bf d6 82 f0 be 35 41 06 be d5 d1 83 3f
       -1.341258 -0.4697482 -0.13110812 1.0298411
000010 3b 8f d3 3e 76 0f fa 3e 4c 7b ac 3e 2f 4e 84 c0
       0.41320214 0.4883992 0.33687818 -4.134544
000020 d0 17 1e bf d8 4e 63 c0 4f 56 0c 3f 92 0b 09 bf
       -0.61755085 -3.5516872 0.54819196 -0.5353328
000030 62 fa 4c 41 9e 9a 17 3d dc e0 ca c0 bc ad 2e b9
       12.811129 0.03701269 -6.3399487 -0.00016658654
