model/model_task2_0.001_200_1.pt (torch, 2704 bytes, 3 tensors)

conv1.bias f4 [16]
000000 00 00 00 00 9f 87 d0 bf 00 00 00 00 00 00 00 00
       0.0 -1.6291388 0.0 0.0
000010 49 e6 80 be 6e f0 11 c0 18 07 78 be cf 3c b0 be
       -0.25175694 -2.2802997 -0.24221456 -0.34421393
000020 18 61 ea be 00 00 00 00 00 00 00 00 00 00 00 00
       -0.45777202 0.0 0.0 0.0
000030 00 00 00 00 7b ec 8e bf 00 00 00 00 58 3b e3 be
       0.0 -1.1165918 0.0 -0.44381213

conv1.lin.weight f4 [16, 2]
000000 aa 8f 0f bf e4 fa ad 3d d1 27 80 3e d7 dd 8b 3e
       -0.5607859 0.08495119 0.25030378 0.27317688
000010 37 69 a8 be 60 79 39 be 8b 76 87 be 16 61 a5 be
       -0.32892773 -0.18112707 -0.2645763 -0.32300633
000020 c3 82 f0 bc 2b ca 4e 3d 93 5e 3a 3f 7d b1 a3 bf
       -0.029359227 0.05048577 0.7280056 -1.278854
000030 dc 4d bb bc b2 f6 2a 3d 7a 68 f4 bd 55 72 18 3e
       -0.022864275 0.041739173 -0.1193399 0.14887364
000040 5a eb d8 3e 40 4c 2e bf 0b c2 ef be 5c 01 a0 be
       0.4236706 -0.680851 -0.4682773 -0.31251037
000050 ba 33 c9 bb 89 81 cc be 54 28 9b bd 09 60 2c 3d
       -0.0061401995 -0.39942577 -0.07576051 0.042083774
000060 03 8d 81 be 67 08 de be bd cd b3 3e 8c 95 11 bf
       -0.25302896 -0.43365785 0.35117903 -0.56868815
000070 87 61 72 be 06 68 5a 3e c7 2c c1 be 27 51 4d 3f
       -0.23670016 0.21328744 -0.37729475 0.80201954

conv2.lin.weight f4 [1, 16]
000000 0a 21 da 3e 46 61 4b c0 d7 1e 93 be 88 f9 8d be
       0.42603332 -3.177812 -0.28734466 -0.2772944
000010 7c b3 5b bc 82 6f 11 c1 a7 d7 e9 bc 0d 88 63 3c
       -0.013409492 -9.089724 -0.028545214 0.0138874175
000020 bc 59 34 3f 78 b0 0c 3d 4b a3 e2 be 99 06 91 3d
       0.70449424 0.03434798 -0.44265208 0.070813365
000030 72 45 f9 3e 60 6e 27 c0 8d 44 9c be e2 07 0d 3f
       0.48685795 -2.6161118 -0.3052105 0.55090153
