model/model_task2_0.01_200_16.pt (torch, 2704 bytes, 3 tensors)

conv1.bias f4 [16]
0.0 0.0 -0.33992523 -0.31675676 -0.32154948 0.0 -0.5219463 0.0
0.0 0.0 -0.39939904 -0.20909783 0.0 -0.5091963 -0.02177767 -0.060054988
00000000: 0000 0000 0000 0000 ae0a aebe f12d a2be
00000010: 22a2 a4be 0000 0000 469e 05bf 0000 0000
00000020: 0000 0000 0000 0000 087e ccbe be1d 56be
00000030: 0000 0000 b05a 02bf 1667 b2bc 38fc 75bd

conv1.lin.weight f4 [16, 2]
-0.5546023 -0.5259742 -0.06337598 -0.3613389 0.02197658 -0.06703775 0.021027809 -0.30137277
0.040901016 -0.09902764 -0.3283326 0.28239632 0.07134788 -0.19159846 -0.5766035 -0.25189403
-0.42238495 0.05983642 -0.45979002 0.38209978 -0.46680364 -0.11581579 -0.2574189 0.26541564
-0.52354693 -0.10713359 0.04165725 -0.21809262 -0.46557534 0.4378173 -0.29683512 0.19701383
00000000: 6bfa 0dbf 3fa6 06bf 44cb 81bd 6a01 b9be
00000010: 3b08 b43c 164b 89bd 8342 ac3c 884d 9abe
00000020: d387 273d 01cf cabd 361b a8be 4096 903e
00000030: d61e 923d 6332 44be 499c 13bf 41f8 80be
00000040: d742 d8be 0917 753d 9969 ebbe 95a2 c33e
00000050: e300 efbe d430 edbd 69cc 83be 8fe4 873e
00000060: 2c07 06bf db68 dbbd cba0 2a3d ac53 5fbe
00000070: e45f eebe 9729 e03e c6fa 97be febd 493e

conv2.lin.weight f4 [1, 16]
-0.44182977 -0.31597286 -0.015902745 -0.1418337 -0.029853728 0.26055837 -0.03203507 0.37486792
0.34552974 0.47422343 -0.26768625 -0.0009831702 -0.40268898 -0.0069357697 0.25860503 -0.3708374
00000000: 8337 e2be 32c7 a1be 7946 82bc da3c 11be
00000010: ce8f f4bc e867 853e 3537 03bd b0ee bf3e
00000020: 46e9 b03e 6acd f23e 2c0e 89be b8dd 80ba
00000030: 402d cebe 7445 e3bb e167 843e 66de bdbe
