model/model_task1_0.01_200_1.pt (torch, 2696 bytes, 3 tensors)

conv1.bias f4 [16]
000000 00 00 00 00 00 00 00 00 00 00 00 00 00 00 00 00
       0.0 0.0 0.0 0.0
000010 d5 a4 7d c1 9f 5c 20 bf c1 ba d5 bd 5c 8d 52 be
       -15.852742 -0.6264133 -0.10436011 -0.20561737
000020 00 00 00 00 9a 9f 05 c0 6d 88 04 bf d6 99 e7 be
       0.0 -2.0878663 -0.5177067 -0.45234555
000030 00 00 00 00 00 00 00 00 00 00 00 00 70 fe b4 bd
       0.0 0.0 0.0 -0.088375926

conv1.lin.weight f4 [16, 2]
000000 cb 20 71 be 98 f1 95 be fa d5 d1 be de 1a b6 be
       -0.23547666 -0.29285884 -0.40983564 -0.35567373
000010 a9 8e 31 be aa bc 44 be 6d 80 fe be 35 8e 08 bf
       -0.17339577 -0.19212595 -0.49707356 -0.5334199
000020 18 f4 11 40 6f e3 e0 c2 ca e1 d4 be 03 30 09 bb
       2.2805233 -112.44421 -0.41578513 -0.0020933158
000030 2b 83 d6 3b bc 03 69 be 72 2f 1c bc 8a 69 16 bf
       0.006546398 -0.22755331 -0.009532796 -0.5875479
000040 39 78 fb be 6b db d5 3e 9b 89 e7 3f 03 f0 13 c3
       -0.4911516 0.41768965 1.8088869 -147.93755
000050 ae ed e4 bc ef 5a cc be ea 23 3d be 89 47 78 be
       -0.027945366 -0.39913127 -0.18470731 -0.24246038
000060 bd e5 ef be e3 21 a8 be 53 94 d5 be 2b 11 c9 be
       -0.46854964 -0.32838354 -0.41714725 -0.3927091
000070 81 68 c4 be 25 37 10 bf 2f 25 9c 3b 85 49 ed be
       -0.3836098 -0.56334144 0.004765175 -0.46345153

conv2.lin.weight f4 [1, 16]
000000 74 ca 89 bc 5d e7 88 3e 99 94 fc bd 1c f8 88 3e
       -0.01682017 0.26739016 -0.1233303 0.26751792
000010 de 07 27 c2 88 3d b0 3d ab 87 b6 3e 63 29 d7 be
       -41.757683 0.08605486 0.3565038 -0.42023763
000020 57 8c 09 3f 6e 3d 02 bf 61 8c a6 bd 48 39 3a 3e
       0.53729767 -0.50874984 -0.08132244 0.18185914
000030 52 3f b4 3e 33 fd 82 3e a4 1b f8 3d c3 1c 9a be
       0.3520456 0.255838 0.12114647 -0.30100068
