model/model_task2_0.005_200_16.pt (torch, 2712 bytes, 3 tensors)

conv1.bias f4 [16]
000000 00 00 00 00 d5 06 68 bd bb dd cf bd 00 00 00 00
       0.0 -0.05664714 -0.101497136 0.0
000010 61 97 25 be 4e 5c 01 be 00 00 00 00 c3 31 5a be
       -0.16171028 -0.12632868 0.0 -0.21308045
000020 00 00 00 00 aa ca 0b be 00 00 00 00 18 c9 ad be
       0.0 -0.13651529 0.0 -0.33942485
000030 00 00 00 00 00 00 00 00 8e 28 8b be a0 65 1e be
       0.0 0.0 -0.27179378 -0.15468454

conv1.lin.weight f4 [16, 2]
000000 ea c8 02 bf 43 f3 60 3e b5 5c 99 be 72 27 9f 3e
       -0.5108782 0.21967797 -0.29953542 0.31084782
000010 2d 88 58 bd 0f ad c7 3d 46 c9 9d be 62 38 18 be
       -0.052864242 0.09749805 -0.30817622 -0.14865258
000020 0f 10 55 3d f6 61 ca be e4 90 f4 bd d9 83 37 3e
       0.052017268 -0.39527863 -0.11941698 0.1792139
000030 35 fc f8 be d3 3d 28 be 70 27 d1 3d 93 44 2b bc
       -0.4862992 -0.16429834 0.102126 -0.010453361
000040 72 5e 06 bf b2 a2 3d 3e 92 bc f3 bd 96 6c 3a 3e
       -0.5248786 0.18519095 -0.11901201 0.18205485
000050 ff 7a 82 be 49 b1 83 be a3 9c 68 3e e6 59 11 bf
       -0.25484464 -0.25721195 0.22716002 -0.567778
000060 b5 1c 32 be a8 bd 95 be 4e 04 a5 be 2d e6 0c 3d
       -0.17393763 -0.2924626 -0.32229847 0.0343992
000070 7e 60 f6 3d 30 60 35 3e b1 6a cb 3d 3a eb a7 3d
       0.12030123 0.17712474 0.09932459 0.08199163

conv2.lin.weight f4 [1, 16]
000000 36 ad 0a 3f 60 d7 e3 be 7d 95 a8 3d 01 a6 5f 3e
       0.5417055 -0.44500256 0.082316376 0.21840669
000010 5e 97 ec bd 02 8e d2 bc 4c 14 71 3c fb 2e d5 ba
       -0.115523085 -0.02570248 0.014714312 -0.0016264612
000020 7d 35 d2 3e e4 2b 50 3d ff d2 b8 bd 21 e4 59 3c
       0.41056433 0.050823107 -0.09024619 0.013299019
000030 d2 d4 ac bd 98 40 d9 3e f3 8a 27 bd b5 75 b1 3d
       -0.0843903 0.42432094 -0.040903997 0.08665029
